models/03_Pytorch_Computer_vision_model_2.pth (torch, 35634 bytes, 10 tensors)

conv_block_1.0.weight f4 [10, 1, 3, 3]
0.29382676 0.2973028 -0.3797292 0.42127484 0.26081607 0.031040601 -0.27304104 0.12185676
0.3316366 -0.56565547 0.3828066 -0.080330655 0.047104362 0.48865488 0.17336704 -0.23411867
0.25379863 0.12379839 -0.2693536 0.12765001 0.10761896 -0.6676774 -0.47385082 0.25914267
-0.79461837 -0.5781503 -0.19203843 -0.78034765 -0.9921504 -0.76921165 0.052481163 -0.89175665
0.15184973 0.29778236 -0.039595187 0.34016073 -0.03975525 0.24675228 -0.074391104 -0.20426239
0.34331068 -0.11721613 0.036713492 0.23390584 0.12356939 -0.14220837 0.19386737 0.064233005
0.1691533 -0.20334943 -0.32938504 -0.12926379 -0.2558467 0.27479273 0.1265 0.36668125
-0.0315471 0.17819256 0.24364017 -0.46638972 -0.05617969 -0.54435706 -0.27311507 -0.08345186
0.13559249 -0.27482235 0.34881184 -0.16910605 -0.34526482 -0.21465252 0.43292445 0.12585688
0.43209657 -0.31762525 -0.46761096 -0.26813143 -0.37842527 -0.04124096 0.24927999 0.47205964
-0.11115427 -0.22692932 0.1761072 -0.1345572 0.20413457 -0.07843137 0.19063218 -0.25893825
-0.16785835 0.1011069
00000000: 7670 963e 1338 983e de6b c2be 56b1 d73e
00000010: af89 853e dc48 fe3c 09cc 8bbe 0990 f93d
00000020: 46cc a93e ccce 10bf 3aff c33e 6684 a4bd
00000030: 81f0 403d f930 fa3e 2187 313e cebc 6fbe
00000040: e5f1 813e 038a fd3d b7e8 89be afb6 023e
00000050: 5467 dc3d e8ec 2abf 939c f2be 59ae 843e
00000060: 1c6c 4bbf a801 14bf b9a5 44be ddc4 47bf
00000070: 92fd 7dbf 0eeb 44bf 7df6 563d 2a4a 64bf
00000080: 7f7e 1b3e ee76 983e 902e 22bd 8c29 ae3e
00000090: 67d6 22bd a1ac 7c3e 5d5a 98bd 292a 51be
000000a0: 6bc6 af3e 030f f0bd e360 163d 0385 6f3e
000000b0: f311 fd3d 129f 11be 2b85 463e 988c 833d
000000c0: 8636 2d3e d53a 50be 28a5 a8be ba5d 04be
000000d0: 57fe 82be a2b1 8c3e 3789 013e a5bd bb3e
000000e0: 8837 01bd 1c78 363e cf7c 793e a2ca eebe
000000f0: ad1c 66bd fc5a 0bbf bdd5 8bbe cfe8 aabd
00000100: c2d8 0a3e 84b5 8cbe 7797 b23e 232a 2dbe
00000110: 8dc6 b0be dfcd 5bbe 46a8 dd3e a0e0 003e
00000120: c33b dd3e c79f a2be b46a efbe 8648 89be
00000130: f5c0 c1be 48ec 28bd 4143 7f3e cdb1 f13e
00000140: daa4 e3bd 2960 68be 7255 343e 5dc9 09be
00000150: a708 513e a0a0 a0bd 1535 433e 8e93 84be
00000160: 0fe3 2bbe 2211 cf3d

conv_block_1.0.bias f4 [10]
0.02069986 0.072994225 0.21367699 0.2063906 0.012378407 -0.1802051 0.100319 -0.083375804
0.016813736 -0.32264864
00000000: c192 a93c ff7d 953d 24ce 5a3e 0f58 533e
00000010: cdce 4a3c b087 38be 0c74 cd3d efc0 aabd
00000020: f6bc 893c 3432 a5be

conv_block_1.2.weight f4 [10, 10, 3, 3]
-0.07480018 0.030896507 -0.056648836 -0.25163236 -0.22029488 -0.23698217 -0.22634293 -0.2947157
-0.24565737 -0.09901835 -0.010295795 -0.032741226 -0.16698693 -0.25492805 -0.2024487 -0.17771347
-0.19864456 -0.24362239 0.01010673 0.047687773 0.10514111 0.084350504 0.29065332 0.19268577
-0.122985184 0.06514852 0.11766798 -0.10957662 0.005004239 -0.1433461 0.14024077 0.029553402
-0.06852329 0.29448128 0.09234941 0.032012127 -0.13218834 -0.16790138 -0.044444792 -0.16359268
-0.09207473 -0.20294851 0.042844336 -0.19333795 -0.1297723 0.022372762 0.055315 0.085221395
0.096764214 -0.08284442 0.026566701 -0.045831606 -0.01281267 -0.07779718 0.15933654 -0.045488693
-0.012912846 0.0723397 0.07619262 -0.05741714 0.031036764 0.0066853585 -0.037269976 -0.07592167
0.056834992 -0.007863644 -0.046961688 0.08743423 0.01715869 -0.029015495 -0.08234745 -0.0319704
0.016668912 -0.021324724 -0.063780665 -0.05649136 -0.100929864 0.018585827 0.09625155 -0.11305257
-0.03697681 0.05444312 0.019094862 -0.037444793 0.05501833 0.055393953 0.039416548 -0.018522663
-0.027913557 0.01127678 -0.021848932 -0.030839302 0.065272465 0.080988444 -0.01916683 -0.035802774
-0.0033344212 -0.0028812904 0.009202559 0.027226854 -0.09988693 -0.037871923 0.09527414 0.039584965
-0.019048488 -0.067931004 -0.062483717 -0.10148332 -0.034352954 0.036756452 0.073850065 0.048657965
-0.0933863 -0.06513412 -0.0176907 0.10088689 0.007686279 -0.033231802 0.019771444 -0.051142596
-0.052274287 0.08478136 -0.047558952 -0.019076312 -0.1076684 0.09499727 0.08078181 0.033782583
-0.08272379 -0.10975005 -0.09047377 0.06863305 0.049665798 0.09742267 0.05510717 0.026718656
-0.00096888404 -0.0801584 -0.090348236 -0.09847698 0.043209735 -0.05159079 -0.021237204 -0.06071483
-0.019400882 -0.07088484 -0.06374977 0.043051638 -0.025558392 0.07254311 -0.046798196 -0.09461686
-0.029986838 -0.05431092 -0.034350444 -0.102779314 0.07366741 -0.06835027 0.050432067 0.051187597
0.091521315 -0.07514048 0.079424895 -0.05134429 0.03195472 0.09763085 -0.00728533 0.0030352033
-0.024169033 -0.075568475 0.06475812 -0.10464167 0.06543891 0.07886652 0.09964498 -0.024898587
-0.08660363 0.023697156 0.058231194 -0.104914226 -0.024861336 -0.064651884 -0.01126364 -0.053098124
-0.04179772 -0.035846062 -0.11280632 0.08497242 0.091452695 -0.017980672 -0.0133159505 -0.044731516
-0.098733395 -0.101034574 0.037776966 -0.061780326 -0.070474476 -0.006781619 -0.041837532 -0.042790167
-0.006846029 -0.024649737 -0.037797034 -0.055117305 -0.08586329 0.08800084 -0.041740257 0.019732647
-0.04350143 0.0007161001 0.09557258 0.042362887 -0.09493936 0.04495067 0.09078699 0.016093705
0.069281824 0.102835104 -0.017337965 0.018992258 -0.072834246 -0.023413774 0.06789688 0.04980313
-0.067367844 -0.0845272 -0.07203292 -0.10402078 -0.08133784 -0.026092352 0.071213126 0.017597971
-0.080107234 -0.0845669 0.045851473 -0.08513572 -0.019569788 0.04902128 -0.051933404 -0.013625331
-0.010455739 -0.024180604 -0.055023007 -0.093919724 -0.08520968 -0.056433927 0.0975227 -0.050010126
-0.07065039 0.020397957 0.020430058 0.06446296 0.07852663 0.057945844 -0.10526987 0.0044187885
00000000: d630 99bd ac1a fd3c 9c08 68bd f5d5 80be
00000010: fb94 61be 74ab 72be 71c6 67be fae4 96be
00000020: 9b8d 7bbe 22ca cabd b2af 28bc aa1b 06bd
00000030: 9ffe 2abe ee85 82be b64e 4fbe 85fa 35be
00000040: 7b69 4bbe 2678 79be b396 253c 4154 433d
00000050: 3954 d73d f5bf ac3d 83d0 943e 6b4f 453e
00000060: a8df fbbd 966c 853d e9fb f03d b569 e0bd
00000070: 99fa a33b 52c9 12be 479b 0f3e fa19 f23c
00000080: f055 8cbd 40c6 963e b021 bd3d 261f 033d
00000090: 615c 07be 57ee 2bbe be0b 36bd d784 27be
000000a0: ad91 bcbd bcd1 4fbe 8b7d 2f3d 62fa 45be
000000b0: 08e3 04be 1547 b73c fb91 623d 8e88 ae3d
000000c0: 512c c63d 56aa a9bd 69a2 d93c ecb9 3bbd
000000d0: 3cec 51bc 2154 9fbd 1e29 233e 5a52 3abd
000000e0: 6790 53bc d626 943d e00a 9c3d 3c2e 6bbd
000000f0: d040 fe3c da10 db3b 67a8 18bd d27c 9bbd
00000100: cfcb 683d 83d6 00bc e65a 40bd b810 b33d
00000110: 6290 8c3c e7b1 edbc c8a5 a8bd 65f3 02bd
00000120: 3e8d 883c 30b1 aebc 709f 82bd 7c63 67bd
00000130: 51b4 cebd 4e41 983c 881f c53d 1b88 e7bd
00000140: ff74 17bd c0ff 5e3d d46c 9c3c b65f 19bd
00000150: e75a 613d c5e4 623d 3f73 213d d7bc 97bc
00000160: f9aa e4bc 3ec2 383c 88fc b2bc b4a2 fcbc
00000170: 92ad 853d 45dd a53d c203 9dbc eea5 12bd
00000180: 4e86 5abb 08d4 3cbb 54c6 163c da0a df3c
00000190: 8591 ccbd 971f 1bbd 171f c33d d823 223d
000001a0: 930b 9cbc 691f 8bbd edee 7fbd 7dd6 cfbd
000001b0: afb5 0cbd ef8d 163d b43e 973d 934d 473d
000001c0: 5141 bfbd 0a65 85bd 16ec 90bc c99d ce3d
000001d0: 2edd fb3b 121e 08bd b9f7 a13c e67a 51bd
000001e0: 901d 56bd daa1 ad3d 2dcd 42bd ed45 9cbc
000001f0: 4081 dcbd ee8d c23d ef70 a53d 9b5f 0a3d
00000200: 176b a9bd a2c4 e0bd 504a b9bd 7c8f 8c3d
00000210: 5d6e 4b3d 8985 c73d 0eb8 613d 15e1 da3c
00000220: b5fc 7dba 162a a4bd 7f08 b9bd 4dae c9bd
00000230: b1fc 303d dd50 53bd a5f9 adbc 1db0 78bd
00000240: 99ee 9ebc 122c 91bd 3d8f 82bd ea56 303d
00000250: d55f d1bc 7b91 943d 77af 3fbd 7cc6 c1bd
00000260: f5a6 f5bc 2175 5ebd 0db3 0cbd f67d d2bd
00000270: f0de 963d 3afb 8bbd db91 4e3d 16aa 513d
00000280: 876f bb3d 41e3 99bd 85a9 a23d 644e 52bd
00000290: f4e2 023d aff2 c73d c7b9 eebb 43ea 463b
000002a0: 23fe c5bc a5c3 9abd e89f 843d 5f4e d6bd
000002b0: d604 863d c584 a13d ab12 cc3d 1ff8 cbbc
000002c0: 3e5d b1bd 8a20 c23c d583 6e3d 45dd d6bd
000002d0: 00aa cbbc 3568 84bd 218b 38bc 6b7d 59bd
000002e0: 1634 2bbd 52d3 12bd 0007 e7bd 0506 ae3d
000002f0: 8d4b bb3d 344c 93bc 252b 5abc 6538 37bd
00000300: bc34 cabd 37eb cebd 05bc 1a3d 5e0d 7dbd
00000310: ec54 90bd 5838 debb d55d 2bbd be44 2fbd
00000320: a754 e0bb 3fee c9bc 10d1 1abd afc2 61bd
00000330: 18d9 afbd c939 b43d d5f7 2abd 5ca6 a13c
00000340: 8e2e 32bd aab8 3b3a 8fbb c33d b584 2d3d
00000350: 916f c2bd 321e 383d 88ee b93d f2d6 833c
00000360: a1e3 8d3d 369b d23d 5908 8ebc a795 9b3c
00000370: 1f2a 95bd 3ece bfbc 850d 8b3d 5efe 4b3d
00000380: 27f8 89bd 991c adbd ff85 93bd d908 d5bd
00000390: 7494 a6bd a1bf d5bc 30d8 913d 9f29 903c
000003a0: 430f a4bd 6931 adbd c1ce 3b3d a35b aebd
000003b0: d250 a0bc 8aca 483d 1fb8 54bd c83c 5fbc
000003c0: 8c4e 2bbc 6716 c6bc ce5f 61bd fc58 c0bd
000003d0: 6a82 aebd 4327 67bd fbb9 c73d 6bd7 4cbd
000003e0: 27b1 90bd 9e19 a73c f05c a73c 2805 843d
000003f0: 92d2 a03d 9f58 6d3d bb97 d7bd 7ccb 903b

conv_block_1.2.bias f4 [10]
0.4522877 -0.043872513 -0.07146205 0.44533306 -0.059695315 0.036464684 0.14662336 0.36231878
0.32543966 0.016565181
00000000: 4192 e73e aab3 33bd b25a 92bd b202 e43e
00000010: 1383 74bd fe5b 153d 6f24 163e d981 b93e
00000020: 07a0 a63e b4b3 873c

conv_block_2.0.weight f4 [10, 10, 3, 3]
0.024626022 -0.08955565 -0.057416156 -0.008521896 0.031629045 0.08869787 -0.06851941 0.059577618
0.09255712 0.05749373 -0.09814215 -0.040272314 -0.08860259 -0.06789966 0.05887358 -0.015621733
0.04690932 -0.062892996 0.016036952 -0.06376838 0.052722644 -0.046895616 -0.026778534 -0.09129541
0.0005142807 0.099960975 0.051428214 -0.0870577 -0.032332063 -0.057076495 -0.077599116 0.07414398
-0.037568305 0.046425413 -0.031236302 -0.084605955 0.0053992667 -0.00021973402 0.004291807 -0.041581154
0.06556482 -0.035918538 -0.029040864 -0.080695644 0.07977463 -0.0022652836 -0.021963034 -0.061391007
-0.03567649 -0.10234069 -0.10219983 0.043703243 0.07299963 0.07200656 -0.09765104 0.05975274
-0.09566496 0.08671816 0.08464771 0.05225011 0.12753274 0.09064307 -0.03372863 0.036910668
-0.05152904 0.021551691 -0.02655335 -0.008049401 -0.10736338 -0.015915766 -0.06170603 -0.045276176
-0.08619342 -0.1214613 -0.051852006 0.08145531 0.08204413 0.0022104168 -0.051014513 -0.11610818
-0.0010616609 0.052521795 -0.12179073 0.041588135 0.09648332 -0.023764903 -0.07103703 0.14693817
0.017840216 0.050239127 -0.15094185 -0.11552687 -0.28777024 -0.032140605 -0.24237664 0.03464372
-0.09138316 0.24284092 0.23300077 0.0453822 -0.04557248 -0.08836467 -0.038986135 0.08562075
-0.022177871 0.04079349 -0.040996958 0.07396573 0.06479611 0.039178815 -0.054594908 -0.08687925
0.003916024 -0.061957046 0.087233864 -0.101487644 0.047371946 0.05064536 0.12215781 -0.021500098
-0.01527093 0.5411764 0.12469641 -0.15697058 -0.22911043 -0.4824181 0.41500443 0.24111216
-0.07564897 0.14561966 0.057436317 -0.09949281 -0.40357926 -0.101911105 -0.30872723 -0.1262586
-0.05314055 -0.110507086 0.13319056 0.27657187 0.014864184 0.05968169 0.055379882 -0.06327988
-0.06795967 -0.003986339 0.30006784 -0.25342774 -0.030675758 0.14670965 0.1449185 0.15882015
-0.1158271 -0.014939654 -0.04619796 0.19395998 -0.02215564 0.24056716 0.034320742 -0.05399284
-0.14832526 -0.26159462 -0.18417397 0.13623938 0.3449953 0.10974995 0.40108728 0.2044913
0.063436665 -0.18980716 -0.56044245 0.123566926 -0.04780799 -0.14360648 -0.02692567 -0.25494924
-0.35655025 -0.37832528 0.051800277 -0.12819776 0.19586523 0.14837289 -0.17667869 0.08907754
-0.054444794 -0.20863843 -0.09874853 -0.12389776 -0.22845401 -0.027315037 -0.05875405 -0.041755218
-0.03463882 0.10062187 -0.042567573 -0.07622247 0.04172035 -0.0061076074 0.086960174 0.06866662
0.096936606 -0.0749267 0.069446675 0.08905268 -0.05178438 0.09721666 0.079045944 -0.25662756
-0.021195497 0.21605729 -0.1845676 0.28044584 0.23436707 -0.08102584 0.112646535 -0.10313295
-0.05159349 0.2653829 0.02428722 -0.10874842 0.5005689 -0.14669505 -0.24444447 -0.05932012
-0.16316058 -0.1573555 -0.17143165 -0.060980152 -0.06890772 0.08538086 -0.10958263 0.07882709
0.22098142 -0.012045555 0.12682682 -0.2406121 -0.33627918 0.027807064 -0.31715795 -0.03892919
-0.102396116 -0.29670408 0.07815154 -0.17548223 -0.15502183 0.17215036 -0.029467095 0.1368416
0.08850605 -0.028088147 0.016977618 0.06973796 -0.38389608 -0.38322416 0.19065988 -0.0035008444
00000000: 83bc c93c f468 b7bd 342d 6bbd 6c9f 0bbc
00000010: 758d 013d 3ba7 b53d e853 8cbd a907 743d
00000020: 968e bd3d 8c7e 6b3d c0fe c8bd 95f4 24bd
00000030: 4675 b5bd fa0e 8bbd 6c25 713d 4cf2 7fbc
00000040: fd23 403d 0bce 80bd ed5f 833c ff98 82bd
00000050: b3f3 573d 9e15 40bd a85e dbbc 17f9 babd
00000060: cbd0 063a 57b8 cc3d 64a6 523d 4f4b b2bd
00000070: a06e 04bd 0bc9 69bd 49ec 9ebd cdd8 973d
00000080: 39e1 19bd 9328 3e3d 46e3 ffbc e345 adbd
00000090: 55ec b03b 6768 66b9 49a2 8c3b 0051 2abd
000000a0: d946 863d 511f 13bd 1be7 edbc c243 a5bd
000000b0: e260 a33d 2775 14bb d2eb b3bc 2375 7bbd
000000c0: 8321 12bd ff97 d1bd 254e d1bd 2c02 333d
000000d0: d480 953d 2d78 933d 45fd c7bd 4abf 743d
000000e0: feeb c3bd 4a99 b13d c75b ad3d 3604 563d
000000f0: f197 023e 13a3 b93d 0827 0abd a42f 173d
00000100: 1d10 53bd 2c8d b03c 6986 d9bc a3e1 03bc
00000110: 55e1 dbbd c861 82bc 76bf 7cbd 8373 39bd
00000120: 2d86 b0bd b4c0 f8bd c562 54bd 0bd2 a63d
00000130: c106 a83d a4dc 103b 98f4 50bd 20ca edbd
00000140: 6e27 8bba 1821 573d 6b6d f9bd 5258 2a3d
00000150: 0c99 c53d 9dae c2bc dd7b 91bd f676 163e
00000160: a525 923c 8bc7 4d3d 8090 1abe 5a99 ecbd
00000170: 9f56 93be dea5 03bd 9531 78be 93e6 0d3d
00000180: 1827 bbbd 4aab 783e c197 6e3e b0e2 393d
00000190: 35aa 3abd 89f8 b4bd edaf 1fbd ef59 af3d
000001a0: 5eae b5bc 1317 273d 6dec 27bd 587b 973d
000001b0: d3b3 843d f779 203d e99e 5fbd c0ed b1bd
000001c0: fe51 803b acc6 7dbd aba7 b23d c1d8 cfbd
000001d0: 1609 423d 8271 4f3d e02d fa3d f920 b0bc
000001e0: ec32 7abc 898a 0a3f d560 ff3d e5bc 20be
000001f0: ed9b 6abe 81ff f6be 767b d43e 1be6 763e
00000200: d9ed 9abd 521d 153e 5842 6b3d e3c2 cbbd
00000210: f1a1 cebe c5b6 d0bd 7f11 9ebe ef49 01be
00000220: e8a9 59bd 8a51 e2bd 1b63 083e d49a 8d3e
00000230: e888 733c ca74 743d 04d6 623d e298 81bd
00000240: 712e 8bbd d69f 82bb 7ea2 993e 48c1 81be
00000250: ba4b fbbc 0e3b 163e 8465 143e c0a1 223e
00000260: c236 edbd 73c5 74bc 123a 3dbd 729d 463e
00000270: bf7f b5bc 3d57 763e e893 0c3d 9927 5dbd
00000280: 94e2 17be bbef 85be 1a98 3cbe 5682 0b3e
00000290: 39a3 b03e 95c4 e03d 505b cd3e 2b66 513e
000002a0: 15eb 813d cf5c 42be 2879 0fbf a810 fd3d
000002b0: 50d2 43bd 940d 13be 3993 dcbc b588 82be
000002c0: c18d b6be dab3 c1be 872c 543d 4646 03be
000002d0: e590 483e 10ef 173e 42eb 34be 496e b63d
000002e0: 8101 5fbd 50a5 55be ab3c cabd 1cbe fdbd
000002f0: d9ef 69be c9c3 dfbc 16a8 70bd 8507 2bbd
00000300: 6fe1 0dbd d712 ce3d 565b 2ebd 871a 9cbd
00000310: f5e2 2a3d 5322 c8bb 2d18 b23d 16a1 8c3d
00000320: b386 c63d 2b73 99bd 0f3a 8e3d 4061 b63d
00000330: dc1b 54bd 8719 c73d d7e2 a13d b064 83be
00000340: 2ea2 adbc 1f3e 5d3e 4aff 3cbe 9996 8f3e
00000350: ecfd 6f3e e0f0 a5bd 3ab3 e63d 5e37 d3bd
00000360: b253 53bd 44e0 873e fef5 c63c 7eb7 debd
00000370: 4925 003f 3a37 16be a74f 7abe a7f9 72bd
00000380: 9113 27be cd21 21be c78b 2fbe 53c6 79bd
00000390: 7e1f 8dbd 29dc ae3d dc6c e0bd 1970 a13d
000003a0: f448 623e b85a 45bc e4de 013e 0563 76be
000003b0: c92c acbe a4cb e33c 8762 a2be 3774 1fbd
000003c0: 0eb5 d1bd 99e9 97be ea0d a03d 9db1 33be
000003d0: 0bbe 1ebe 2f48 303e fa64 f1bc 3420 0c3e
000003e0: a942 b53d 1d19 e6bc a514 8b3c c7d2 8e3d
000003f0: 078e c4be f535 c4be 583c 433e 6c6e 65bb

conv_block_2.0.bias f4 [10]
-0.07318996 0.22174598 0.2182897 0.020190367 0.0209136 0.0019989454 0.4049898 0.19823307
0.7226202 0.2310721
00000000: 9ee4 95bd 6111 633e 5687 5f3e 4566 a53c
00000010: 0053 ab3c bd00 033b d35a cf3e 9cfd 4a3e
00000020: a3fd 383f 2a9e 6c3e

conv_block_2.2.weight f4 [10, 10, 3, 3]
-0.08055566 -0.07640494 -0.022866191 -0.047067143 0.080739066 0.016784389 0.042752255 -0.05284784
0.11939008 -0.07359452 -0.33160776 -0.030765409 -0.24903393 -0.004214033 -0.27847472 0.33279186
0.31854355 -0.6542216 0.15056416 -0.28098407 0.19035275 0.004300861 0.017056605 -0.43597585
-0.0052582705 -0.011134642 -0.725449 -0.19489463 -0.023269974 -0.21564363 -0.35119376 -0.022070762
0.14240623 -0.07032525 -0.0610309 0.15477172 -0.05890344 0.004371281 0.062251847 -0.023445373
-0.037327286 -0.0049097696 -0.08979219 -0.06343837 -0.041295595 -0.15743881 -0.0946254 0.183554
-0.11728911 0.03181538 0.22440109 -0.02011636 0.0680696 0.034100845 -0.32717994 -0.07499744
-0.56621563 -0.114488676 0.0037001541 0.2559143 -0.16313885 -0.03177473 0.42006072 0.06810998
0.079100326 -0.061047968 -0.009036379 0.26473823 -0.17469487 0.075665094 0.13865 -0.124980785
0.32594243 -0.14024375 0.11396061 -0.18848072 -0.46044058 0.20825744 -0.32002178 -0.28789434
0.050652493 -0.16384512 -0.01067597 -0.41018757 -0.034697272 0.045867946 -0.3028319 -0.08505023
0.22467284 0.36822826 0.03758446 -0.0068871337 -0.04648842 -0.08381876 0.001310288 -0.093040675
0.092490435 -0.03613064 -0.043606646 -0.21683083 0.17106426 0.006403864 0.33170453 -0.18743926
-0.10906482 0.15064076 -0.3575721 0.014446791 0.060602553 -0.04678902 0.05660556 0.18615694
-0.1956453 0.06769489 0.047250144 -0.35621935 0.2934291 -0.12832095 0.07384235 0.047917627
0.1708359 0.09788905 -0.23951155 0.16019405 0.2919751 -0.26644692 -0.011170946 0.079634205
0.047831442 -0.0078874165 -0.040118527 0.059981905 0.020184094 -0.081067175 -0.029343674 -0.1598598
-0.20359851 -0.010924517 -0.018305507 -0.09325409 -0.029266663 0.13959804 0.49164808 0.096980095
-0.15421025 -0.1683879 -0.029836463 -0.11048816 0.08834947 -0.21486579 0.042870432 0.44810036
-0.54776824 0.14921819 -0.06906398 -0.12082111 0.27139586 -0.20939885 0.032764703 0.16796865
-0.3180374 0.049190916 -0.2154123 -0.47715214 -0.28978908 -0.15651532 -0.07907512 -0.083481096
-0.17137273 0.11859902 0.064572 -0.15496485 -0.022758814 0.15456198 -0.10013017 -0.16389535
0.008160517 0.021106277 -0.21773116 -0.28770822 0.09368231 -0.007171643 -0.021422898 -0.04222474
-0.024874855 0.044647716 -0.002170802 0.08476201 -0.014990203 -0.11236408 -0.0077223475 -0.105771884
-0.07533996 0.010482636 0.05172307 -0.059872746 0.015851174 -0.012175144 0.0127255665 -0.02726725
-0.07212944 -0.010092848 0.08125293 0.03091402 -0.015207994 -0.08045241 -0.005091222 -0.10860641
0.06795758 0.045324087 0.037653137 -0.01799773 -0.08788284 0.04274718 -0.054650456 0.021216823
0.05902385 -0.09865541 0.006192758 -0.03601665 0.07438845 -0.06788749 0.06353662 0.06420775
0.057310738 0.16854188 0.005281786 -0.11401487 0.14567932 0.034798134 0.017184135 -0.09272728
-0.017017953 -0.052487586 0.053139355 0.04382116 0.03174245 0.0079973135 -0.08828905 -0.07910747
-0.109973796 -0.07541882 0.046006814 0.01615379 0.0802356 -0.028486945 -0.12358861 -0.054623805
0.04528981 0.01357587 -0.01951506 -0.08936953 -0.12147266 -0.10776009 0.0067961463 -0.062401243
00000000: 5efa a4bd 317a 9cbd e151 bbbc 7ac9 40bd
00000010: 865a a53d 6a7f 893c fd1c 2f3d fa76 58bd
00000020: c982 f43d b9b8 96bd 7ec8 a9be bd07 fcbc
00000030: c002 7fbe df15 8abb 3d94 8ebe b263 aa3e
00000040: 2418 a33e 117b 27bf 7e2d 1a3e 25dd 8fbe
00000050: d5eb 423e 3dee 8c3b 4bba 8b3c 3a38 dfbe
00000060: 924d acbb 136e 36bc 07b7 39bf 7592 47be
00000070: aca0 bebc afd1 5cbe abcf b3be becd b4bc
00000080: f0d2 113e af06 90bd 89fb 79bd 7a7c 1e3e
00000090: bc44 71bd f63c 8f3b cbfb 7e3d 8310 c0bc
000000a0: 7fe4 18bd 22e2 a0bb f8e4 b7bd faeb 81bd
000000b0: 9225 29bd a437 21be f6ca c1bd 94f5 3b3e
000000c0: 4635 f0bd d850 023d 66c9 653e 11cb a4bc
000000d0: 1368 8b3d 54ad 0b3d 2184 a7be 4298 99bd
000000e0: 82f3 10bf 0a79 eabd 497e 723b 3307 833e
000000f0: df0d 27be 3826 02bd 3312 d73e 3f7d 8b3d
00000100: 5aff a13d 6f0d 7abd 520d 14bc c58b 873e
00000110: 36e3 32be 4df6 9a3d 44fa 0d3e edf5 ffbd
00000120: ede1 a63e 0f9c 0fbe 2e64 e93d 1701 41be
00000130: debe ebbe 7041 553e e5d9 a3be e366 93be
00000140: fd78 4f3d 04c7 27be 44ea 2ebc 1b04 d2be
00000150: ba1e 0ebd 07e0 3b3d c80c 9bbe d12e aebd
00000160: a310 663e 6a88 bc3e 2af2 193d 77ad e1bb
00000170: a46a 3ebd 2ca9 abbd f8bd ab3a 1c8c bebd
00000180: a06b bd3d b9fd 13bd e29c 32bd e708 5ebe
00000190: 782b 2f3e 81d7 d13b 2dd5 a93e 14f0 3fbe
000001a0: 605d dfbd 9241 1a3e b113 b7be 3cb2 6c3c
000001b0: 623a 783d d8a5 3fbd 3bdb 673d ed9f 3e3e
000001c0: 3e57 48be 9ea3 8a3d 5e89 413d 6262 b6be
000001d0: 573c 963e 9166 03be a83a 973d 4645 443d
000001e0: 9bef 2e3e 0e7a c83d 8442 75be e909 243e
000001f0: c37d 953e bb6b 88be 5806 37bc 4217 a33d
00000200: e7ea 433d 393a 01bc 5353 24bd 96af 753d
00000210: 1d59 a53c 8c06 a6bd 2562 f0bc 4ab2 23be
00000220: 217c 50be bffc 32bc 6ef5 95bc 00fc bebd
00000230: a4c0 efbc caf2 0e3e 4cb9 fb3e 809d c63d
00000240: 4be9 1dbe e16d 2cbe 996b f4bc 9e47 e2bd
00000250: 91f0 b43d c705 5cbe e898 2f3d 696d e53e
00000260: 8a3a 0cbf a7cc 183e 6a71 8dbd 0f71 f7bd
00000270: 66f4 8a3e a76c 56be 4834 063d f9ff 2b3e
00000280: ccd5 a2be 6a7c 493d 0b95 5cbe 494d f4be
00000290: 3c5f 94be 8d45 20be 23f2 a1bd 23f8 aabd
000002a0: 557c 2fbe 0be4 f23d 533e 843d 1baf 1ebe
000002b0: b170 babc 7f45 1e3e 0c11 cdbd 2fd4 27be
000002c0: b0b3 053c 12e7 ac3c ebf4 5ebe 7e4e 93be
000002d0: 83dc bf3d 1a00 ebbb 137f afbc d9f3 2cbd
000002e0: 5ac6 cbbc 86e0 363d 0444 0ebb b497 ad3d
000002f0: 7899 75bc 241f e6bd bf0b fdbb ee9e d8bd
00000300: d64b 9abd 5dbf 2b3c 92db 533d 203d 75bd
00000310: 52da 813c 417a 47bc e57e 503c 915f dfbc
00000320: 9ab8 93bd 795c 25bc f067 a63d 663f fd3c
00000330: f32a 79bc 3cc4 a4bd 44d4 a6bb 0a6d debd
00000340: 582d 8b3d c0a5 393d 2d3a 1a3d fa6f 93bc
00000350: ebfb b3bd ab17 2f3d 28d9 5fbd e7ce ad3c
00000360: fec2 713d d90b cabd 9fec ca3b 3286 13bd
00000370: f958 983d 9908 8bbd 7d1f 823d 5a7f 833d
00000380: aabe 6a3d 3e96 2c3e d512 ad3b a180 e9bd
00000390: f62c 153e 7d88 0e3d bec5 8c3c cde7 bdbd
000003a0: 3c69 8bbc 39fd 56bd a7a8 593d d17d 333d
000003b0: 5f04 023d 2a07 033c e4d0 b4bd 1903 a2bd
000003c0: f139 e1bd 2f75 9abd a471 3c3d f454 843c
000003d0: 9052 a43d 745d e9bc 061c fdbd 36bd 5fbd
000003e0: cf81 393d 536d 5e3c 0cde 9fbc 5f07 b7bd
000003f0: a8c6 f8bd 52b1 dcbd 35b2 de3b 7298 7fbd

conv_block_2.2.bias f4 [10]
0.2443393 -0.077099845 -0.07668553 -0.052937277 -0.14763051 -0.023304615 0.092215024 0.19872755
0.050823063 -0.07159508
00000000: 1534 7a3e 86e6 9dbd 4e0d 9dbd c2d4 58bd
00000010: 742c 17be 52e9 bebc 3bdb bc3d 3c7f 4b3e
00000020: d82b 503d 71a0 92bd

classifier.1.weight f4 [10, 490]
0.07954826 -0.13779907 0.10532741 -0.19963282 0.16373205 0.27093717 0.084383115 -0.05398873
0.115659945 -0.07854231 -0.0180767 0.2020766 0.11620641 0.047135137 -0.17183864 -0.024076318
-0.060441963 -0.10877971 0.01685144 0.16247559 0.0336194 -0.07979796 0.1156716 -0.059702497
-0.059381124 0.10249841 0.07604588 0.05990759 -0.091608435 0.04131195 -0.05766421 -0.09426548
0.20113479 -0.1119887 0.1172385 0.050121684 -0.10547768 -0.18689692 -0.13225508 -0.122603096
0.019968547 -0.048800766 0.06963808 -0.1317872 -0.1671747 -0.057896 -0.096903056 0.017902529
-0.17264242 0.067244954 0.088047974 0.102286875 -0.16396654 -0.13619213 0.07481952 0.036650732
0.058843 -0.10844822 0.1163554 0.034793284 -0.102132246 0.009366634 -0.054372758 -0.0022968121
0.2386094 -0.053446513 -0.06488569 0.1487421 0.14130856 0.0060278093 0.055069864 0.15385386
-0.04433814 -0.18338598 0.10479561 0.063302316 -0.081925526 0.06693283 0.03999366 -0.005978298
-0.1357943 -0.06703187 -0.123367146 -0.13586204 -0.1414742 -0.044845253 -0.13278101 -0.15387337
-0.14876996 -0.14548679 -0.021226551 0.0144861005 0.021690452 0.10984427 -0.16220526 0.08336046
-0.02917395 0.0026922945 0.04591915 0.0690715 0.013023982 0.015646 -0.006899636 0.053059947
-0.02413851 0.0041130604 0.087487414 0.04133958 0.006406589 -0.009521277 -0.0038167215 0.04179989
-0.033074386 0.07410009 0.0466069 -0.0058944393 -0.0108417375 0.031197893 0.00917277 0.018888783
0.029124262 -0.036612228 0.011875829 -0.00012572996 -0.07752125 -0.018353904 -0.06702866 -0.059342414
-0.004223266 -0.016591499 -0.027855707 -0.07571466 -0.0257147 0.0014663856 -0.024601432 -0.016688623
0.0064758807 -0.02755203 -0.05706563 -0.053585492 0.0035718821 -0.024485946 0.026774691 0.01979882
-0.004666136 -0.014014718 -0.023536703 0.1890089 -0.11404455 -0.032715745 -0.05699068 0.033205796
0.07101158 -0.013126259 0.029850865 -0.21967097 -0.13530782 -0.079537354 0.03522156 -0.16179411
-0.016880408 -0.040082615 0.049646832 0.01891988 0.04531905 0.045363504 -0.051982578 0.402869
-0.020858081 0.15533648 -0.068484075 0.06274422 0.07599641 -0.22036849 0.30745217 -0.017820293
0.18768719 -0.025838448 -0.09427608 0.12561141 -0.22986758 0.16632366 -0.14371555 0.28300443
-0.08094108 -0.06043599 0.08124214 0.03064452 0.03435675 -0.022790805 0.07422774 0.011013188
0.010229094 -0.17908408 0.16266748 -0.15399082 0.039617267 -0.067781016 -0.10432083 0.1259478
-0.02564781 0.3101547 0.041292988 -0.011301274 0.047820706 0.0082759075 0.26955447 0.2239379
-0.08132086 0.0016862879 -0.018509679 0.08044307 0.032004837 0.20819345 0.029479766 0.04193258
0.16058907 -0.011600147 0.013438636 0.028064067 0.044324763 0.0013564521 0.05142988 0.1300028
0.054440092 0.03959902 -0.098004065 -0.008945713 0.06880053 -0.24228351 -0.10792697 0.004601399
-0.08172136 -0.009333589 -0.017969342 -0.13263367 -0.16885227 -0.14080824 0.027235469 -0.008331021
-0.096417576 -0.08868749 0.13159965 -0.051090308 -0.07759153 -0.01946096 0.008066664 0.018629316
0.022077207 -0.0076090517 -0.007388088 0.02941112 -0.005691088 0.008820685 0.020031616 0.064241074
00000000: 33ea a23d 331b 0dbe e6b5 d73d 8c6c 4cbe
00000010: 60a9 273e 47b8 8a3e 0ed1 ac3d 4923 5dbd
00000020: 1fdf ec3d cada a0bd 9615 94bc 2bed 4e3e
00000030: a0fd ed3d c610 413d 78f6 2fbe b33b c5bc
00000040: fe91 77bd e6c7 debd 080c 8a3c 0060 263e
00000050: 7fb4 093d 1d6d a3bd 3be5 ec3d 9b8a 74bd
00000060: 9f39 73bd b0ea d13d f1bd 9b3d a961 753d
00000070: 349d bbbd b836 293d 4f31 6cbd 430e c1bd
00000080: 47f6 4d3e 555a e5bd bd1a f03d 654c 4d3d
00000090: af04 d8bd e861 3fbe e06d 07be 5517 fbbd
000000a0: 1495 a33c 50e3 47bd 699e 8e3d 39f3 06be
000000b0: d82f 2bbe 5b24 6dbd 1c75 c6bd 53a8 923c
000000c0: 2dc9 30be b9b7 893d 7f52 b43d c87b d13d
000000d0: d8e6 27be f375 0bbe fa3a 993d 141f 163d
000000e0: 5c05 713d 1a1a debd bd4b ee3d 6783 0e3d
000000f0: b62a d1bd 8376 193c f8b5 5ebd 1d86 16bb
00000100: 0656 743e bbea 5abd cae2 84bd d94f 183e
00000110: 31b3 103e ee84 c53b f090 613d de8b 1d3e
00000120: e99b 35bd 89c9 3bbe 159f d63d a5a4 813d
00000130: 92c8 a7bd 1414 893d 64d0 233d 99e5 c3bb
00000140: a90d 0bbe 0148 89bd eaa7 fcbd 6b1f 0bbe
00000150: 9dde 10be a8af 37bd bff7 07be fb90 1dbe
00000160: 2757 18be 7dfa 14be 4ee3 adbc 1c57 6d3c
00000170: 2db0 b13c 08f6 e03d 2319 26be e4b8 aa3d
00000180: 35fe eebc 3571 303b b815 3c3d 5c75 8d3d
00000190: 8a62 553c 0a2c 803c 5716 e2bb 6355 593d
000001a0: 20be c5bc dac6 863b 9a2c b33d b153 293d
000001b0: 5dee d13b 21ff 1bbc f621 7abb 5d36 2b3d
000001c0: 0279 07bd cac1 973d e0e6 3e3d 2426 c1bb
000001d0: 8ba1 31bc b992 ff3c 6349 163c a6bc 9a3c
000001e0: 0196 ee3c b4f6 15bd d692 423c 61d6 03b9
000001f0: 76c3 9ebd ed5a 96bc 5246 89bd 0811 73bd
00000200: 5363 8abb e5ea 87bc a731 e4bc 4a10 9bbd
00000210: a2a7 d2bc bc33 c03a f188 c9bc 94b6 88bc
00000220: a033 d43b cbb4 e1bc a6bd 69bd 767c 5bbd
00000230: 3d16 6a3b c096 c8bc 9956 db3c 2331 a23c
00000240: 63e6 98bb fd9d 65bc 0bd0 c0bc 8d8b 413e
00000250: 3090 e9bd f200 06bd 0f6f 69bd cd02 083d
00000260: 856e 913d 850f 57bc cd89 f43c 6df1 60be
00000270: 228e 0abe 7be4 a2bd 7c44 103d 5bad 25be
00000280: c848 8abc ab2d 24bd 7a5a 4b3d ddfd 9a3c
00000290: 78a0 393d 15cf 393d afeb 54bd d844 ce3e
000002a0: 91de aabc 8710 1f3e 6141 8cbd 0b80 803d
000002b0: 01a4 9b3d 47a8 61be 5f6a 9d3e ddfb 91bc
000002c0: 1231 403e 27ab d3bc d113 c1bd 47a0 003e
000002d0: 6862 6bbe c050 2a3e 2b2a 13be f5e5 903e
000002e0: 70c4 a5bd bb8b 77bd 4762 a63d 370a fb3c
000002f0: aab9 0c3d c8b3 babc b704 983d a970 343c
00000300: ee97 273c d161 37be 4e92 263e c5af 1dbe
00000310: b745 223d c6d0 8abd 29a6 d5bd 76f8 003e
00000320: 5b1b d2bc 99cc 9e3e d622 293d fb28 39bc
00000330: a5df 433d ac97 073c 0b03 8a3e fa4f 653e
00000340: 8d8b a6bd 6f06 dd3a 9ca1 97bc 56bf a43d
00000350: 8117 033d aa30 553e 8d7f f13c 7fc1 2b3d
00000360: 7671 243e 8b0e 3ebc ba2d 5c3c 9de6 e53c
00000370: e28d 353d fbca b13a 23a8 523d 741f 053e
00000380: 93fc 5e3d 9532 223d 5bb6 c8bd 0a91 12bc
00000390: 4be7 8c3d 2b19 78be d108 ddbd 55c7 963b
000003a0: 875d a7bd e9eb 18bc 7134 93bc 1fd1 07be
000003b0: 9ce7 2cbe 0930 10be eb1c df3c d67e 08bc
000003c0: 9476 c5bd c9a1 b5bd 0fc2 063e 1244 51bd
000003d0: 4fe8 9ebd 976c 9fbc 0b2a 043c 829c 983c
000003e0: 42db b43c 5a55 f9bb c617 f2bb 97ef f03c
000003f0: 4e7c babb a284 103c 5819 a43c d390 833d

classifier.1.bias f4 [10]
0.13517568 -0.16945338 0.38695645 -0.0549719 -0.47588196 -0.14474328 0.2838249 0.040984467
0.11580213 -0.15451854
00000000: 7e6b 0a3e 3085 2dbe 281f c63e 372a 61bd
00000010: cda6 f3be 9537 14be 7f51 913e 54df 273d
00000020: ab29 ed3d 1c3a 1ebe
